<?xml version="1.0"?>
<net name="Model6" version="11">
	<layers>
		<layer id="1" name="observations.1" type="Parameter" version="opset1">
			<data shape="?" element_type="f32" />
			<output>
				<port id="0" precision="FP32" names="observations.1">
					<dim>-1</dim>
				</port>
			</output>
		</layer>
		<layer id="0" name="gait_a.1" type="Parameter" version="opset1">
			<data shape="?" element_type="f32" />
			<output>
				<port id="0" precision="FP32" names="gait_a.1">
					<dim>-1</dim>
				</port>
			</output>
		</layer>
		<layer id="2" name="Constant_7742" type="Const" version="opset1">
			<data element_type="f32" shape="1" offset="0" size="4" />
			<output>
				<port id="0" precision="FP32">
					<dim>1</dim>
				</port>
			</output>
		</layer>
		<layer id="3" name="aten::eq/Equal" type="Equal" version="opset1">
			<data auto_broadcast="numpy" />
			<input>
				<port id="0" precision="FP32">
					<dim>-1</dim>
				</port>
				<port id="1" precision="FP32">
					<dim>1</dim>
				</port>
			</input>
			<output>
				<port id="2" precision="BOOL" names="81">
					<dim>-1</dim>
				</port>
			</output>
		</layer>
		<layer id="4" name="aten::clamp/Minimum" type="Clamp" version="opset1">
			<data min="-100" max="100" />
			<input>
				<port id="0" precision="FP32">
					<dim>-1</dim>
				</port>
			</input>
			<output>
				<port id="1" precision="FP32" names="69,observations0.1">
					<dim>-1</dim>
				</port>
			</output>
		</layer>
		<layer id="5" name="aten::slice/Reshape" type="Const" version="opset1">
			<data element_type="i64" shape="1" offset="4" size="8" />
			<output>
				<port id="0" precision="I64">
					<dim>1</dim>
				</port>
			</output>
		</layer>
		<layer id="6" name="aten::slice/Reshape_1" type="Const" version="opset1">
			<data element_type="i64" shape="1" offset="12" size="8" />
			<output>
				<port id="0" precision="I64">
					<dim>1</dim>
				</port>
			</output>
		</layer>
		<layer id="7" name="aten::slice/Reshape_2" type="Const" version="opset1">
			<data element_type="i64" shape="1" offset="20" size="8" />
			<output>
				<port id="0" precision="I64">
					<dim>1</dim>
				</port>
			</output>
		</layer>
		<layer id="8" name="aten::slice/Reshape_3" type="Const" version="opset1">
			<data element_type="i64" shape="1" offset="28" size="8" />
			<output>
				<port id="0" precision="I64">
					<dim>1</dim>
				</port>
			</output>
		</layer>
		<layer id="9" name="aten::slice/Slice" type="Slice" version="opset8">
			<input>
				<port id="0" precision="FP32">
					<dim>-1</dim>
				</port>
				<port id="1" precision="I64">
					<dim>1</dim>
				</port>
				<port id="2" precision="I64">
					<dim>1</dim>
				</port>
				<port id="3" precision="I64">
					<dim>1</dim>
				</port>
				<port id="4" precision="I64">
					<dim>1</dim>
				</port>
			</input>
			<output>
				<port id="5" precision="FP32" names="70_1">
					<dim>-1</dim>
				</port>
			</output>
		</layer>
		<layer id="10" name="aten::slice/Reshape_4" type="Const" version="opset1">
			<data element_type="i64" shape="1" offset="36" size="8" />
			<output>
				<port id="0" precision="I64">
					<dim>1</dim>
				</port>
			</output>
		</layer>
		<layer id="11" name="aten::slice/Reshape_5" type="Const" version="opset1">
			<data element_type="i64" shape="1" offset="12" size="8" />
			<output>
				<port id="0" precision="I64">
					<dim>1</dim>
				</port>
			</output>
		</layer>
		<layer id="12" name="aten::slice/Reshape_6" type="Const" version="opset1">
			<data element_type="i64" shape="1" offset="20" size="8" />
			<output>
				<port id="0" precision="I64">
					<dim>1</dim>
				</port>
			</output>
		</layer>
		<layer id="13" name="aten::slice/Reshape_7" type="Const" version="opset1">
			<data element_type="i64" shape="1" offset="28" size="8" />
			<output>
				<port id="0" precision="I64">
					<dim>1</dim>
				</port>
			</output>
		</layer>
		<layer id="14" name="aten::slice/Slice_1" type="Slice" version="opset8">
			<input>
				<port id="0" precision="FP32">
					<dim>-1</dim>
				</port>
				<port id="1" precision="I64">
					<dim>1</dim>
				</port>
				<port id="2" precision="I64">
					<dim>1</dim>
				</port>
				<port id="3" precision="I64">
					<dim>1</dim>
				</port>
				<port id="4" precision="I64">
					<dim>1</dim>
				</port>
			</input>
			<output>
				<port id="5" precision="FP32" names="71_1">
					<dim>-1</dim>
				</port>
			</output>
		</layer>
		<layer id="15" name="aten::slice/Reshape_8" type="Const" version="opset1">
			<data element_type="i64" shape="1" offset="44" size="8" />
			<output>
				<port id="0" precision="I64">
					<dim>1</dim>
				</port>
			</output>
		</layer>
		<layer id="16" name="aten::slice/Reshape_9" type="Const" version="opset1">
			<data element_type="i64" shape="1" offset="52" size="8" />
			<output>
				<port id="0" precision="I64">
					<dim>1</dim>
				</port>
			</output>
		</layer>
		<layer id="17" name="aten::slice/Reshape_10" type="Const" version="opset1">
			<data element_type="i64" shape="1" offset="20" size="8" />
			<output>
				<port id="0" precision="I64">
					<dim>1</dim>
				</port>
			</output>
		</layer>
		<layer id="18" name="aten::slice/Reshape_11" type="Const" version="opset1">
			<data element_type="i64" shape="1" offset="28" size="8" />
			<output>
				<port id="0" precision="I64">
					<dim>1</dim>
				</port>
			</output>
		</layer>
		<layer id="19" name="aten::slice/Slice_2" type="Slice" version="opset8">
			<input>
				<port id="0" precision="FP32">
					<dim>-1</dim>
				</port>
				<port id="1" precision="I64">
					<dim>1</dim>
				</port>
				<port id="2" precision="I64">
					<dim>1</dim>
				</port>
				<port id="3" precision="I64">
					<dim>1</dim>
				</port>
				<port id="4" precision="I64">
					<dim>1</dim>
				</port>
			</input>
			<output>
				<port id="5" precision="FP32" names="72">
					<dim>-1</dim>
				</port>
			</output>
		</layer>
		<layer id="20" name="aten::slice/Constant" type="Const" version="opset1">
			<data element_type="i32" shape="1" offset="0" size="4" />
			<output>
				<port id="0" precision="I32">
					<dim>1</dim>
				</port>
			</output>
		</layer>
		<layer id="21" name="aten::slice/Reshape_12" type="Const" version="opset1">
			<data element_type="i64" shape="1" offset="60" size="8" />
			<output>
				<port id="0" precision="I64">
					<dim>1</dim>
				</port>
			</output>
		</layer>
		<layer id="22" name="aten::slice/Reshape_13" type="Const" version="opset1">
			<data element_type="i64" shape="1" offset="20" size="8" />
			<output>
				<port id="0" precision="I64">
					<dim>1</dim>
				</port>
			</output>
		</layer>
		<layer id="23" name="aten::slice/Reshape_14" type="Const" version="opset1">
			<data element_type="i64" shape="1" offset="28" size="8" />
			<output>
				<port id="0" precision="I64">
					<dim>1</dim>
				</port>
			</output>
		</layer>
		<layer id="24" name="aten::slice/Slice_3" type="Slice" version="opset8">
			<input>
				<port id="0" precision="FP32">
					<dim>-1</dim>
				</port>
				<port id="1" precision="I32">
					<dim>1</dim>
				</port>
				<port id="2" precision="I64">
					<dim>1</dim>
				</port>
				<port id="3" precision="I64">
					<dim>1</dim>
				</port>
				<port id="4" precision="I64">
					<dim>1</dim>
				</port>
			</input>
			<output>
				<port id="5" precision="FP32" names="73">
					<dim>-1</dim>
				</port>
			</output>
		</layer>
		<layer id="25" name="aten::cat/ConvertLike" type="ConvertLike" version="opset1">
			<input>
				<port id="0" precision="FP32">
					<dim>-1</dim>
				</port>
				<port id="1" precision="FP32">
					<dim>-1</dim>
				</port>
			</input>
			<output>
				<port id="2" precision="FP32">
					<dim>-1</dim>
				</port>
			</output>
		</layer>
		<layer id="26" name="aten::slice/Reshape_15" type="Const" version="opset1">
			<data element_type="i64" shape="1" offset="12" size="8" />
			<output>
				<port id="0" precision="I64">
					<dim>1</dim>
				</port>
			</output>
		</layer>
		<layer id="27" name="aten::slice/Reshape_16" type="Const" version="opset1">
			<data element_type="i64" shape="1" offset="68" size="8" />
			<output>
				<port id="0" precision="I64">
					<dim>1</dim>
				</port>
			</output>
		</layer>
		<layer id="28" name="aten::slice/Reshape_17" type="Const" version="opset1">
			<data element_type="i64" shape="1" offset="20" size="8" />
			<output>
				<port id="0" precision="I64">
					<dim>1</dim>
				</port>
			</output>
		</layer>
		<layer id="29" name="aten::slice/Reshape_18" type="Const" version="opset1">
			<data element_type="i64" shape="1" offset="28" size="8" />
			<output>
				<port id="0" precision="I64">
					<dim>1</dim>
				</port>
			</output>
		</layer>
		<layer id="30" name="aten::slice/Slice_4" type="Slice" version="opset8">
			<input>
				<port id="0" precision="FP32">
					<dim>-1</dim>
				</port>
				<port id="1" precision="I64">
					<dim>1</dim>
				</port>
				<port id="2" precision="I64">
					<dim>1</dim>
				</port>
				<port id="3" precision="I64">
					<dim>1</dim>
				</port>
				<port id="4" precision="I64">
					<dim>1</dim>
				</port>
			</input>
			<output>
				<port id="5" precision="FP32" names="74">
					<dim>-1</dim>
				</port>
			</output>
		</layer>
		<layer id="31" name="aten::cat/ConvertLike_1" type="ConvertLike" version="opset1">
			<input>
				<port id="0" precision="FP32">
					<dim>-1</dim>
				</port>
				<port id="1" precision="FP32">
					<dim>-1</dim>
				</port>
			</input>
			<output>
				<port id="2" precision="FP32">
					<dim>-1</dim>
				</port>
			</output>
		</layer>
		<layer id="32" name="aten::cat/Concat" type="Concat" version="opset1">
			<data axis="0" />
			<input>
				<port id="0" precision="FP32">
					<dim>-1</dim>
				</port>
				<port id="1" precision="FP32">
					<dim>-1</dim>
				</port>
				<port id="2" precision="FP32">
					<dim>-1</dim>
				</port>
			</input>
			<output>
				<port id="3" precision="FP32" names="76_1">
					<dim>-1</dim>
				</port>
			</output>
		</layer>
		<layer id="33" name="aten::slice/Constant_1" type="Const" version="opset1">
			<data element_type="i32" shape="1" offset="0" size="4" />
			<output>
				<port id="0" precision="I32">
					<dim>1</dim>
				</port>
			</output>
		</layer>
		<layer id="34" name="aten::slice/Reshape_19" type="Const" version="opset1">
			<data element_type="i64" shape="1" offset="12" size="8" />
			<output>
				<port id="0" precision="I64">
					<dim>1</dim>
				</port>
			</output>
		</layer>
		<layer id="35" name="aten::slice/Reshape_20" type="Const" version="opset1">
			<data element_type="i64" shape="1" offset="20" size="8" />
			<output>
				<port id="0" precision="I64">
					<dim>1</dim>
				</port>
			</output>
		</layer>
		<layer id="36" name="aten::slice/Reshape_21" type="Const" version="opset1">
			<data element_type="i64" shape="1" offset="28" size="8" />
			<output>
				<port id="0" precision="I64">
					<dim>1</dim>
				</port>
			</output>
		</layer>
		<layer id="37" name="aten::slice/Slice_5" type="Slice" version="opset8">
			<input>
				<port id="0" precision="FP32">
					<dim>-1</dim>
				</port>
				<port id="1" precision="I32">
					<dim>1</dim>
				</port>
				<port id="2" precision="I64">
					<dim>1</dim>
				</port>
				<port id="3" precision="I64">
					<dim>1</dim>
				</port>
				<port id="4" precision="I64">
					<dim>1</dim>
				</port>
			</input>
			<output>
				<port id="5" precision="FP32" names="77_1">
					<dim>-1</dim>
				</port>
			</output>
		</layer>
		<layer id="38" name="aten::slice/Constant_2" type="Const" version="opset1">
			<data element_type="i32" shape="1" offset="0" size="4" />
			<output>
				<port id="0" precision="I32">
					<dim>1</dim>
				</port>
			</output>
		</layer>
		<layer id="39" name="aten::slice/Reshape_22" type="Const" version="opset1">
			<data element_type="i64" shape="1" offset="4" size="8" />
			<output>
				<port id="0" precision="I64">
					<dim>1</dim>
				</port>
			</output>
		</layer>
		<layer id="40" name="aten::slice/Reshape_23" type="Const" version="opset1">
			<data element_type="i64" shape="1" offset="20" size="8" />
			<output>
				<port id="0" precision="I64">
					<dim>1</dim>
				</port>
			</output>
		</layer>
		<layer id="41" name="aten::slice/Reshape_24" type="Const" version="opset1">
			<data element_type="i64" shape="1" offset="28" size="8" />
			<output>
				<port id="0" precision="I64">
					<dim>1</dim>
				</port>
			</output>
		</layer>
		<layer id="42" name="aten::slice/Slice_6" type="Slice" version="opset8">
			<input>
				<port id="0" precision="FP32">
					<dim>-1</dim>
				</port>
				<port id="1" precision="I32">
					<dim>1</dim>
				</port>
				<port id="2" precision="I64">
					<dim>1</dim>
				</port>
				<port id="3" precision="I64">
					<dim>1</dim>
				</port>
				<port id="4" precision="I64">
					<dim>1</dim>
				</port>
			</input>
			<output>
				<port id="5" precision="FP32" names="78">
					<dim>-1</dim>
				</port>
			</output>
		</layer>
		<layer id="43" name="aten::cat/ConvertLike_2" type="ConvertLike" version="opset1">
			<input>
				<port id="0" precision="FP32">
					<dim>-1</dim>
				</port>
				<port id="1" precision="FP32">
					<dim>-1</dim>
				</port>
			</input>
			<output>
				<port id="2" precision="FP32">
					<dim>-1</dim>
				</port>
			</output>
		</layer>
		<layer id="44" name="aten::cat/Concat_1" type="Concat" version="opset1">
			<data axis="0" />
			<input>
				<port id="0" precision="FP32">
					<dim>-1</dim>
				</port>
				<port id="1" precision="FP32">
					<dim>-1</dim>
				</port>
			</input>
			<output>
				<port id="2" precision="FP32" names="80_1">
					<dim>-1</dim>
				</port>
			</output>
		</layer>
		<layer id="45" name="prim::If/If" type="If" version="opset8">
			<else_port_map>
				<input external_port_id="1" internal_layer_id="4" />
				<input external_port_id="2" internal_layer_id="3" />
				<input external_port_id="3" internal_layer_id="2" />
				<input external_port_id="5" internal_layer_id="1" />
				<input external_port_id="6" internal_layer_id="0" />
				<output external_port_id="7" internal_layer_id="9" />
				<output external_port_id="8" internal_layer_id="8" />
			</else_port_map>
			<then_port_map>
				<input external_port_id="4" internal_layer_id="0" />
				<output external_port_id="7" internal_layer_id="22" />
				<output external_port_id="8" internal_layer_id="2" />
			</then_port_map>
			<input>
				<port id="0" precision="BOOL">
					<dim>-1</dim>
				</port>
				<port id="1" precision="FP32">
					<dim>-1</dim>
				</port>
				<port id="2" precision="FP32">
					<dim>-1</dim>
				</port>
				<port id="3" precision="FP32">
					<dim>-1</dim>
				</port>
				<port id="4" precision="FP32">
					<dim>-1</dim>
				</port>
				<port id="5" precision="FP32">
					<dim>-1</dim>
				</port>
				<port id="6" precision="FP32">
					<dim>-1</dim>
				</port>
			</input>
			<output>
				<port id="7" precision="FP32" names="82,actions">
					<dim>21</dim>
				</port>
				<port id="8" precision="FP32" names="83,vel_est">
					<dim>3</dim>
				</port>
			</output>
			<then_body>
				<layers>
					<layer id="0" name="Parameter_177" type="Parameter" version="opset1">
						<data shape="..95" element_type="f32" />
						<output>
							<port id="0" precision="FP32" names="76">
								<dim>-1</dim>
							</port>
						</output>
					</layer>
					<layer id="1" name="Constant_77_1_1" type="Const" version="opset1">
						<data element_type="f32" shape="3" offset="76" size="12" />
						<output>
							<port id="0" precision="FP32" names="40,40_1,40_2,40_3,40_4">
								<dim>3</dim>
							</port>
						</output>
					</layer>
					<layer id="3" name="Transpose_7599" type="Const" version="opset1">
						<data element_type="f32" shape="512, 95" offset="88" size="194560" />
						<output>
							<port id="0" precision="FP32">
								<dim>512</dim>
								<dim>95</dim>
							</port>
						</output>
					</layer>
					<layer id="4" name="aten::matmul/MatMul" type="MatMul" version="opset1">
						<data transpose_a="false" transpose_b="true" />
						<input>
							<port id="0" precision="FP32">
								<dim>-1</dim>
							</port>
							<port id="1" precision="FP32">
								<dim>512</dim>
								<dim>95</dim>
							</port>
						</input>
						<output>
							<port id="2" precision="FP32" names="84">
								<dim>512</dim>
							</port>
						</output>
					</layer>
					<layer id="5" name="aten::add/Multiply" type="Const" version="opset1">
						<data element_type="f32" shape="512" offset="194648" size="2048" />
						<output>
							<port id="0" precision="FP32">
								<dim>512</dim>
							</port>
						</output>
					</layer>
					<layer id="6" name="aten::add/Add" type="Add" version="opset1">
						<data auto_broadcast="numpy" />
						<input>
							<port id="0" precision="FP32">
								<dim>512</dim>
							</port>
							<port id="1" precision="FP32">
								<dim>512</dim>
							</port>
						</input>
						<output>
							<port id="2" precision="FP32" names="85">
								<dim>512</dim>
							</port>
						</output>
					</layer>
					<layer id="7" name="aten::elu/Elu" type="Elu" version="opset1">
						<data alpha="1" />
						<input>
							<port id="0" precision="FP32">
								<dim>512</dim>
							</port>
						</input>
						<output>
							<port id="1" precision="FP32" names="86,input.1">
								<dim>512</dim>
							</port>
						</output>
					</layer>
					<layer id="8" name="Transpose_7604" type="Const" version="opset1">
						<data element_type="f32" shape="256, 512" offset="196696" size="524288" />
						<output>
							<port id="0" precision="FP32">
								<dim>256</dim>
								<dim>512</dim>
							</port>
						</output>
					</layer>
					<layer id="9" name="aten::matmul/MatMul_1" type="MatMul" version="opset1">
						<data transpose_a="false" transpose_b="true" />
						<input>
							<port id="0" precision="FP32">
								<dim>512</dim>
							</port>
							<port id="1" precision="FP32">
								<dim>256</dim>
								<dim>512</dim>
							</port>
						</input>
						<output>
							<port id="2" precision="FP32" names="87">
								<dim>256</dim>
							</port>
						</output>
					</layer>
					<layer id="10" name="aten::add/Multiply_1" type="Const" version="opset1">
						<data element_type="f32" shape="256" offset="720984" size="1024" />
						<output>
							<port id="0" precision="FP32">
								<dim>256</dim>
							</port>
						</output>
					</layer>
					<layer id="11" name="aten::add/Add_1" type="Add" version="opset1">
						<data auto_broadcast="numpy" />
						<input>
							<port id="0" precision="FP32">
								<dim>256</dim>
							</port>
							<port id="1" precision="FP32">
								<dim>256</dim>
							</port>
						</input>
						<output>
							<port id="2" precision="FP32" names="88">
								<dim>256</dim>
							</port>
						</output>
					</layer>
					<layer id="12" name="aten::elu/Elu_1" type="Elu" version="opset1">
						<data alpha="1" />
						<input>
							<port id="0" precision="FP32">
								<dim>256</dim>
							</port>
						</input>
						<output>
							<port id="1" precision="FP32" names="89,input0.1">
								<dim>256</dim>
							</port>
						</output>
					</layer>
					<layer id="13" name="Transpose_7609" type="Const" version="opset1">
						<data element_type="f32" shape="256, 256" offset="722008" size="262144" />
						<output>
							<port id="0" precision="FP32">
								<dim>256</dim>
								<dim>256</dim>
							</port>
						</output>
					</layer>
					<layer id="14" name="aten::matmul/MatMul_2" type="MatMul" version="opset1">
						<data transpose_a="false" transpose_b="true" />
						<input>
							<port id="0" precision="FP32">
								<dim>256</dim>
							</port>
							<port id="1" precision="FP32">
								<dim>256</dim>
								<dim>256</dim>
							</port>
						</input>
						<output>
							<port id="2" precision="FP32" names="90">
								<dim>256</dim>
							</port>
						</output>
					</layer>
					<layer id="15" name="aten::add/Multiply_2" type="Const" version="opset1">
						<data element_type="f32" shape="256" offset="984152" size="1024" />
						<output>
							<port id="0" precision="FP32">
								<dim>256</dim>
							</port>
						</output>
					</layer>
					<layer id="16" name="aten::add/Add_2" type="Add" version="opset1">
						<data auto_broadcast="numpy" />
						<input>
							<port id="0" precision="FP32">
								<dim>256</dim>
							</port>
							<port id="1" precision="FP32">
								<dim>256</dim>
							</port>
						</input>
						<output>
							<port id="2" precision="FP32" names="91">
								<dim>256</dim>
							</port>
						</output>
					</layer>
					<layer id="17" name="aten::elu/Elu_2" type="Elu" version="opset1">
						<data alpha="1" />
						<input>
							<port id="0" precision="FP32">
								<dim>256</dim>
							</port>
						</input>
						<output>
							<port id="1" precision="FP32" names="92,input1.1">
								<dim>256</dim>
							</port>
						</output>
					</layer>
					<layer id="18" name="Transpose_7614" type="Const" version="opset1">
						<data element_type="f32" shape="21, 256" offset="985176" size="21504" />
						<output>
							<port id="0" precision="FP32">
								<dim>21</dim>
								<dim>256</dim>
							</port>
						</output>
					</layer>
					<layer id="19" name="aten::matmul/MatMul_3" type="MatMul" version="opset1">
						<data transpose_a="false" transpose_b="true" />
						<input>
							<port id="0" precision="FP32">
								<dim>256</dim>
							</port>
							<port id="1" precision="FP32">
								<dim>21</dim>
								<dim>256</dim>
							</port>
						</input>
						<output>
							<port id="2" precision="FP32" names="93">
								<dim>21</dim>
							</port>
						</output>
					</layer>
					<layer id="20" name="aten::add/Multiply_3" type="Const" version="opset1">
						<data element_type="f32" shape="21" offset="1006680" size="84" />
						<output>
							<port id="0" precision="FP32">
								<dim>21</dim>
							</port>
						</output>
					</layer>
					<layer id="21" name="aten::add/Add_3" type="Add" version="opset1">
						<data auto_broadcast="numpy" />
						<input>
							<port id="0" precision="FP32">
								<dim>21</dim>
							</port>
							<port id="1" precision="FP32">
								<dim>21</dim>
							</port>
						</input>
						<output>
							<port id="2" precision="FP32" names="94,actions.1">
								<dim>21</dim>
							</port>
						</output>
					</layer>
					<layer id="22" name="Result_233" type="Result" version="opset1">
						<input>
							<port id="0" precision="FP32">
								<dim>21</dim>
							</port>
						</input>
					</layer>
					<layer id="2" name="Result_235" type="Result" version="opset1">
						<input>
							<port id="0" precision="FP32">
								<dim>3</dim>
							</port>
						</input>
					</layer>
				</layers>
				<edges>
					<edge from-layer="0" from-port="0" to-layer="4" to-port="0" />
					<edge from-layer="1" from-port="0" to-layer="2" to-port="0" />
					<edge from-layer="3" from-port="0" to-layer="4" to-port="1" />
					<edge from-layer="4" from-port="2" to-layer="6" to-port="0" />
					<edge from-layer="5" from-port="0" to-layer="6" to-port="1" />
					<edge from-layer="6" from-port="2" to-layer="7" to-port="0" />
					<edge from-layer="7" from-port="1" to-layer="9" to-port="0" />
					<edge from-layer="8" from-port="0" to-layer="9" to-port="1" />
					<edge from-layer="9" from-port="2" to-layer="11" to-port="0" />
					<edge from-layer="10" from-port="0" to-layer="11" to-port="1" />
					<edge from-layer="11" from-port="2" to-layer="12" to-port="0" />
					<edge from-layer="12" from-port="1" to-layer="14" to-port="0" />
					<edge from-layer="13" from-port="0" to-layer="14" to-port="1" />
					<edge from-layer="14" from-port="2" to-layer="16" to-port="0" />
					<edge from-layer="15" from-port="0" to-layer="16" to-port="1" />
					<edge from-layer="16" from-port="2" to-layer="17" to-port="0" />
					<edge from-layer="17" from-port="1" to-layer="19" to-port="0" />
					<edge from-layer="18" from-port="0" to-layer="19" to-port="1" />
					<edge from-layer="19" from-port="2" to-layer="21" to-port="0" />
					<edge from-layer="20" from-port="0" to-layer="21" to-port="1" />
					<edge from-layer="21" from-port="2" to-layer="22" to-port="0" />
				</edges>
				<rt_info />
			</then_body>
			<else_body>
				<layers>
					<layer id="4" name="Parameter_236" type="Parameter" version="opset1">
						<data shape="?" element_type="f32" />
						<output>
							<port id="0" precision="FP32" names="2_2">
								<dim>-1</dim>
							</port>
						</output>
					</layer>
					<layer id="3" name="Parameter_2691" type="Parameter" version="opset1">
						<data shape="..3950" element_type="f32" />
						<output>
							<port id="0" precision="FP32" names="70">
								<dim>-1</dim>
							</port>
						</output>
					</layer>
					<layer id="2" name="Parameter_2732" type="Parameter" version="opset1">
						<data shape="..790" element_type="f32" />
						<output>
							<port id="0" precision="FP32" names="71">
								<dim>-1</dim>
							</port>
						</output>
					</layer>
					<layer id="1" name="Parameter_2773" type="Parameter" version="opset1">
						<data shape="..4034" element_type="f32" />
						<output>
							<port id="0" precision="FP32" names="77">
								<dim>-1</dim>
							</port>
						</output>
					</layer>
					<layer id="0" name="Parameter_2814" type="Parameter" version="opset1">
						<data shape="..874" element_type="f32" />
						<output>
							<port id="0" precision="FP32" names="80">
								<dim>-1</dim>
							</port>
						</output>
					</layer>
					<layer id="5" name="Constant_7743" type="Const" version="opset1">
						<data element_type="f32" shape="1" offset="1006764" size="4" />
						<output>
							<port id="0" precision="FP32">
								<dim>1</dim>
							</port>
						</output>
					</layer>
					<layer id="6" name="aten::eq/Equal_1" type="Equal" version="opset1">
						<data auto_broadcast="numpy" />
						<input>
							<port id="0" precision="FP32">
								<dim>-1</dim>
							</port>
							<port id="1" precision="FP32">
								<dim>1</dim>
							</port>
						</input>
						<output>
							<port id="2" precision="BOOL" names="95">
								<dim>-1</dim>
							</port>
						</output>
					</layer>
					<layer id="7" name="prim::If/If_1" type="If" version="opset8">
						<else_port_map>
							<input external_port_id="1" internal_layer_id="2" />
							<input external_port_id="3" internal_layer_id="1" />
							<input external_port_id="5" internal_layer_id="0" />
							<output external_port_id="6" internal_layer_id="7" />
							<output external_port_id="7" internal_layer_id="6" />
						</else_port_map>
						<then_port_map>
							<input external_port_id="2" internal_layer_id="0" />
							<input external_port_id="4" internal_layer_id="1" />
							<output external_port_id="6" internal_layer_id="62" />
							<output external_port_id="7" internal_layer_id="37" />
						</then_port_map>
						<input>
							<port id="0" precision="BOOL">
								<dim>-1</dim>
							</port>
							<port id="1" precision="FP32">
								<dim>-1</dim>
							</port>
							<port id="2" precision="FP32">
								<dim>-1</dim>
							</port>
							<port id="3" precision="FP32">
								<dim>-1</dim>
							</port>
							<port id="4" precision="FP32">
								<dim>-1</dim>
							</port>
							<port id="5" precision="FP32">
								<dim>-1</dim>
							</port>
						</input>
						<output>
							<port id="6" precision="FP32" names="96,actions0">
								<dim>21</dim>
							</port>
							<port id="7" precision="FP32" names="97,vel_est0">
								<dim>3</dim>
							</port>
						</output>
						<then_body>
							<layers>
								<layer id="1" name="Parameter_243" type="Parameter" version="opset1">
									<data shape="..4034" element_type="f32" />
									<output>
										<port id="0" precision="FP32" names="77_2">
											<dim>-1</dim>
										</port>
									</output>
								</layer>
								<layer id="0" name="Parameter_315" type="Parameter" version="opset1">
									<data shape="..3950" element_type="f32" />
									<output>
										<port id="0" precision="FP32" names="70_2">
											<dim>-1</dim>
										</port>
									</output>
								</layer>
								<layer id="2" name="Concat_6014" type="Const" version="opset1">
									<data element_type="i64" shape="2" offset="1006768" size="16" />
									<output>
										<port id="0" precision="I64">
											<dim>2</dim>
										</port>
									</output>
								</layer>
								<layer id="3" name="aten::reshape/Reshape" type="Reshape" version="opset1">
									<data special_zero="false" />
									<input>
										<port id="0" precision="FP32">
											<dim>-1</dim>
										</port>
										<port id="1" precision="I64">
											<dim>2</dim>
										</port>
									</input>
									<output>
										<port id="2" precision="FP32" names="111">
											<dim>-1</dim>
											<dim>79</dim>
										</port>
									</output>
								</layer>
								<layer id="4" name="Transpose_7619" type="Const" version="opset1">
									<data element_type="f32" shape="30, 79" offset="1006784" size="9480" />
									<output>
										<port id="0" precision="FP32">
											<dim>30</dim>
											<dim>79</dim>
										</port>
									</output>
								</layer>
								<layer id="5" name="aten::matmul/MatMul_4" type="MatMul" version="opset1">
									<data transpose_a="false" transpose_b="true" />
									<input>
										<port id="0" precision="FP32">
											<dim>-1</dim>
											<dim>79</dim>
										</port>
										<port id="1" precision="FP32">
											<dim>30</dim>
											<dim>79</dim>
										</port>
									</input>
									<output>
										<port id="2" precision="FP32" names="112">
											<dim>-1</dim>
											<dim>30</dim>
										</port>
									</output>
								</layer>
								<layer id="6" name="Constant_7744" type="Const" version="opset1">
									<data element_type="f32" shape="1, 30" offset="1016264" size="120" />
									<output>
										<port id="0" precision="FP32">
											<dim>1</dim>
											<dim>30</dim>
										</port>
									</output>
								</layer>
								<layer id="7" name="aten::add/Add_4" type="Add" version="opset1">
									<data auto_broadcast="numpy" />
									<input>
										<port id="0" precision="FP32">
											<dim>-1</dim>
											<dim>30</dim>
										</port>
										<port id="1" precision="FP32">
											<dim>1</dim>
											<dim>30</dim>
										</port>
									</input>
									<output>
										<port id="2" precision="FP32" names="113">
											<dim>-1</dim>
											<dim>30</dim>
										</port>
									</output>
								</layer>
								<layer id="8" name="aten::elu/Elu_3" type="Elu" version="opset1">
									<data alpha="1" />
									<input>
										<port id="0" precision="FP32">
											<dim>-1</dim>
											<dim>30</dim>
										</port>
									</input>
									<output>
										<port id="1" precision="FP32" names="114,projection.1">
											<dim>-1</dim>
											<dim>30</dim>
										</port>
									</output>
								</layer>
								<layer id="9" name="Constant_336" type="Const" version="opset1">
									<data element_type="i64" shape="3" offset="1016384" size="24" />
									<output>
										<port id="0" precision="I64" names="115">
											<dim>3</dim>
										</port>
									</output>
								</layer>
								<layer id="10" name="aten::reshape/Reshape_1" type="Reshape" version="opset1">
									<data special_zero="false" />
									<input>
										<port id="0" precision="FP32">
											<dim>-1</dim>
											<dim>30</dim>
										</port>
										<port id="1" precision="I64">
											<dim>3</dim>
										</port>
									</input>
									<output>
										<port id="2" precision="FP32" names="116">
											<dim>1</dim>
											<dim>50</dim>
											<dim>-1</dim>
										</port>
									</output>
								</layer>
								<layer id="11" name="Constant_344" type="Const" version="opset1">
									<data element_type="i64" shape="3" offset="1016408" size="24" />
									<output>
										<port id="0" precision="I64" names="117">
											<dim>3</dim>
										</port>
									</output>
								</layer>
								<layer id="12" name="aten::permute/Transpose" type="Transpose" version="opset1">
									<input>
										<port id="0" precision="FP32">
											<dim>1</dim>
											<dim>50</dim>
											<dim>-1</dim>
										</port>
										<port id="1" precision="I64">
											<dim>3</dim>
										</port>
									</input>
									<output>
										<port id="2" precision="FP32" names="118">
											<dim>1</dim>
											<dim>-1</dim>
											<dim>50</dim>
										</port>
									</output>
								</layer>
								<layer id="13" name="Constant_55" type="Const" version="opset1">
									<data element_type="f32" shape="20, 30, 8" offset="1016432" size="19200" />
									<output>
										<port id="0" precision="FP32" names="29,29_1,29_2">
											<dim>20</dim>
											<dim>30</dim>
											<dim>8</dim>
										</port>
									</output>
								</layer>
								<layer id="14" name="aten::conv1d/Convolution" type="Convolution" version="opset1">
									<data strides="4" dilations="1" pads_begin="0" pads_end="0" auto_pad="explicit" />
									<input>
										<port id="0" precision="FP32">
											<dim>1</dim>
											<dim>-1</dim>
											<dim>50</dim>
										</port>
										<port id="1" precision="FP32">
											<dim>20</dim>
											<dim>30</dim>
											<dim>8</dim>
										</port>
									</input>
									<output>
										<port id="2" precision="FP32">
											<dim>1</dim>
											<dim>20</dim>
											<dim>11</dim>
										</port>
									</output>
								</layer>
								<layer id="15" name="aten::conv1d/Reshape" type="Const" version="opset1">
									<data element_type="f32" shape="1, 20, 1" offset="1035632" size="80" />
									<output>
										<port id="0" precision="FP32">
											<dim>1</dim>
											<dim>20</dim>
											<dim>1</dim>
										</port>
									</output>
								</layer>
								<layer id="16" name="aten::conv1d/Add" type="Add" version="opset1">
									<data auto_broadcast="numpy" />
									<input>
										<port id="0" precision="FP32">
											<dim>1</dim>
											<dim>20</dim>
											<dim>11</dim>
										</port>
										<port id="1" precision="FP32">
											<dim>1</dim>
											<dim>20</dim>
											<dim>1</dim>
										</port>
									</input>
									<output>
										<port id="2" precision="FP32" names="120,input5.1">
											<dim>1</dim>
											<dim>20</dim>
											<dim>11</dim>
										</port>
									</output>
								</layer>
								<layer id="17" name="aten::elu/Elu_4" type="Elu" version="opset1">
									<data alpha="1" />
									<input>
										<port id="0" precision="FP32">
											<dim>1</dim>
											<dim>20</dim>
											<dim>11</dim>
										</port>
									</input>
									<output>
										<port id="1" precision="FP32" names="121,input6.1">
											<dim>1</dim>
											<dim>20</dim>
											<dim>11</dim>
										</port>
									</output>
								</layer>
								<layer id="18" name="Constant_49" type="Const" version="opset1">
									<data element_type="f32" shape="10, 20, 5" offset="1035712" size="4000" />
									<output>
										<port id="0" precision="FP32" names="25,25_1,25_2">
											<dim>10</dim>
											<dim>20</dim>
											<dim>5</dim>
										</port>
									</output>
								</layer>
								<layer id="19" name="aten::conv1d/Convolution_1" type="Convolution" version="opset1">
									<data strides="1" dilations="1" pads_begin="0" pads_end="0" auto_pad="explicit" />
									<input>
										<port id="0" precision="FP32">
											<dim>1</dim>
											<dim>20</dim>
											<dim>11</dim>
										</port>
										<port id="1" precision="FP32">
											<dim>10</dim>
											<dim>20</dim>
											<dim>5</dim>
										</port>
									</input>
									<output>
										<port id="2" precision="FP32">
											<dim>1</dim>
											<dim>10</dim>
											<dim>7</dim>
										</port>
									</output>
								</layer>
								<layer id="20" name="aten::conv1d/Reshape_1" type="Const" version="opset1">
									<data element_type="f32" shape="1, 10, 1" offset="1039712" size="40" />
									<output>
										<port id="0" precision="FP32">
											<dim>1</dim>
											<dim>10</dim>
											<dim>1</dim>
										</port>
									</output>
								</layer>
								<layer id="21" name="aten::conv1d/Add_1" type="Add" version="opset1">
									<data auto_broadcast="numpy" />
									<input>
										<port id="0" precision="FP32">
											<dim>1</dim>
											<dim>10</dim>
											<dim>7</dim>
										</port>
										<port id="1" precision="FP32">
											<dim>1</dim>
											<dim>10</dim>
											<dim>1</dim>
										</port>
									</input>
									<output>
										<port id="2" precision="FP32" names="122,input7.1">
											<dim>1</dim>
											<dim>10</dim>
											<dim>7</dim>
										</port>
									</output>
								</layer>
								<layer id="22" name="aten::elu/Elu_5" type="Elu" version="opset1">
									<data alpha="1" />
									<input>
										<port id="0" precision="FP32">
											<dim>1</dim>
											<dim>10</dim>
											<dim>7</dim>
										</port>
									</input>
									<output>
										<port id="1" precision="FP32" names="123,input8.1">
											<dim>1</dim>
											<dim>10</dim>
											<dim>7</dim>
										</port>
									</output>
								</layer>
								<layer id="23" name="Constant_45" type="Const" version="opset1">
									<data element_type="f32" shape="10, 10, 5" offset="1039752" size="2000" />
									<output>
										<port id="0" precision="FP32" names="23,23_1,23_2">
											<dim>10</dim>
											<dim>10</dim>
											<dim>5</dim>
										</port>
									</output>
								</layer>
								<layer id="24" name="aten::conv1d/Convolution_2" type="Convolution" version="opset1">
									<data strides="1" dilations="1" pads_begin="0" pads_end="0" auto_pad="explicit" />
									<input>
										<port id="0" precision="FP32">
											<dim>1</dim>
											<dim>10</dim>
											<dim>7</dim>
										</port>
										<port id="1" precision="FP32">
											<dim>10</dim>
											<dim>10</dim>
											<dim>5</dim>
										</port>
									</input>
									<output>
										<port id="2" precision="FP32">
											<dim>1</dim>
											<dim>10</dim>
											<dim>3</dim>
										</port>
									</output>
								</layer>
								<layer id="25" name="aten::conv1d/Reshape_2" type="Const" version="opset1">
									<data element_type="f32" shape="1, 10, 1" offset="1041752" size="40" />
									<output>
										<port id="0" precision="FP32">
											<dim>1</dim>
											<dim>10</dim>
											<dim>1</dim>
										</port>
									</output>
								</layer>
								<layer id="26" name="aten::conv1d/Add_2" type="Add" version="opset1">
									<data auto_broadcast="numpy" />
									<input>
										<port id="0" precision="FP32">
											<dim>1</dim>
											<dim>10</dim>
											<dim>3</dim>
										</port>
										<port id="1" precision="FP32">
											<dim>1</dim>
											<dim>10</dim>
											<dim>1</dim>
										</port>
									</input>
									<output>
										<port id="2" precision="FP32" names="124,input9.1">
											<dim>1</dim>
											<dim>10</dim>
											<dim>3</dim>
										</port>
									</output>
								</layer>
								<layer id="27" name="aten::elu/Elu_6" type="Elu" version="opset1">
									<data alpha="1" />
									<input>
										<port id="0" precision="FP32">
											<dim>1</dim>
											<dim>10</dim>
											<dim>3</dim>
										</port>
									</input>
									<output>
										<port id="1" precision="FP32" names="125,input10.1">
											<dim>1</dim>
											<dim>10</dim>
											<dim>3</dim>
										</port>
									</output>
								</layer>
								<layer id="28" name="Concat_6020" type="Const" version="opset1">
									<data element_type="i64" shape="2" offset="1041792" size="16" />
									<output>
										<port id="0" precision="I64">
											<dim>2</dim>
										</port>
									</output>
								</layer>
								<layer id="29" name="aten::flatten/Reshape" type="Reshape" version="opset1">
									<data special_zero="true" />
									<input>
										<port id="0" precision="FP32">
											<dim>1</dim>
											<dim>10</dim>
											<dim>3</dim>
										</port>
										<port id="1" precision="I64">
											<dim>2</dim>
										</port>
									</input>
									<output>
										<port id="2" precision="FP32" names="126,output.1">
											<dim>1</dim>
											<dim>30</dim>
										</port>
									</output>
								</layer>
								<layer id="30" name="Transpose_7630" type="Const" version="opset1">
									<data element_type="f32" shape="3, 30" offset="1041808" size="360" />
									<output>
										<port id="0" precision="FP32">
											<dim>3</dim>
											<dim>30</dim>
										</port>
									</output>
								</layer>
								<layer id="31" name="aten::matmul/MatMul_5" type="MatMul" version="opset1">
									<data transpose_a="false" transpose_b="true" />
									<input>
										<port id="0" precision="FP32">
											<dim>1</dim>
											<dim>30</dim>
										</port>
										<port id="1" precision="FP32">
											<dim>3</dim>
											<dim>30</dim>
										</port>
									</input>
									<output>
										<port id="2" precision="FP32" names="127">
											<dim>1</dim>
											<dim>3</dim>
										</port>
									</output>
								</layer>
								<layer id="32" name="Constant_7745" type="Const" version="opset1">
									<data element_type="f32" shape="1, 3" offset="1042168" size="12" />
									<output>
										<port id="0" precision="FP32">
											<dim>1</dim>
											<dim>3</dim>
										</port>
									</output>
								</layer>
								<layer id="33" name="aten::add/Add_5" type="Add" version="opset1">
									<data auto_broadcast="numpy" />
									<input>
										<port id="0" precision="FP32">
											<dim>1</dim>
											<dim>3</dim>
										</port>
										<port id="1" precision="FP32">
											<dim>1</dim>
											<dim>3</dim>
										</port>
									</input>
									<output>
										<port id="2" precision="FP32" names="128">
											<dim>1</dim>
											<dim>3</dim>
										</port>
									</output>
								</layer>
								<layer id="34" name="aten::elu/Elu_7" type="Elu" version="opset1">
									<data alpha="1" />
									<input>
										<port id="0" precision="FP32">
											<dim>1</dim>
											<dim>3</dim>
										</port>
									</input>
									<output>
										<port id="1" precision="FP32" names="129,output0.1">
											<dim>1</dim>
											<dim>3</dim>
										</port>
									</output>
								</layer>
								<layer id="35" name="52_1_1" type="Const" version="opset1">
									<data element_type="i64" shape="" offset="28" size="8" />
									<output>
										<port id="0" precision="I64" names="52,52_1,52_2,52_3,52_4" />
									</output>
								</layer>
								<layer id="36" name="aten::squeeze/Squeeze" type="Squeeze" version="opset1">
									<input>
										<port id="0" precision="FP32">
											<dim>1</dim>
											<dim>3</dim>
										</port>
										<port id="1" precision="I64" />
									</input>
									<output>
										<port id="2" precision="FP32" names="130,vel_est0.1">
											<dim>3</dim>
										</port>
									</output>
								</layer>
								<layer id="38" name="aten::slice/Constant_3" type="Const" version="opset1">
									<data element_type="i32" shape="1" offset="0" size="4" />
									<output>
										<port id="0" precision="I32">
											<dim>1</dim>
										</port>
									</output>
								</layer>
								<layer id="39" name="aten::slice/Reshape_25_1" type="Const" version="opset1">
									<data element_type="i64" shape="1" offset="4" size="8" />
									<output>
										<port id="0" precision="I64">
											<dim>1</dim>
										</port>
									</output>
								</layer>
								<layer id="40" name="aten::slice/Reshape_26_1" type="Const" version="opset1">
									<data element_type="i64" shape="1" offset="20" size="8" />
									<output>
										<port id="0" precision="I64">
											<dim>1</dim>
										</port>
									</output>
								</layer>
								<layer id="41" name="aten::slice/Reshape_27_1" type="Const" version="opset1">
									<data element_type="i64" shape="1" offset="28" size="8" />
									<output>
										<port id="0" precision="I64">
											<dim>1</dim>
										</port>
									</output>
								</layer>
								<layer id="42" name="aten::slice/Slice_7" type="Slice" version="opset8">
									<input>
										<port id="0" precision="FP32">
											<dim>-1</dim>
										</port>
										<port id="1" precision="I32">
											<dim>1</dim>
										</port>
										<port id="2" precision="I64">
											<dim>1</dim>
										</port>
										<port id="3" precision="I64">
											<dim>1</dim>
										</port>
										<port id="4" precision="I64">
											<dim>1</dim>
										</port>
									</input>
									<output>
										<port id="5" precision="FP32" names="98">
											<dim>-1</dim>
										</port>
									</output>
								</layer>
								<layer id="43" name="Transpose_7635" type="Const" version="opset1">
									<data element_type="f32" shape="512, 84" offset="1042180" size="172032" />
									<output>
										<port id="0" precision="FP32">
											<dim>512</dim>
											<dim>84</dim>
										</port>
									</output>
								</layer>
								<layer id="44" name="aten::matmul/MatMul_6" type="MatMul" version="opset1">
									<data transpose_a="false" transpose_b="true" />
									<input>
										<port id="0" precision="FP32">
											<dim>-1</dim>
										</port>
										<port id="1" precision="FP32">
											<dim>512</dim>
											<dim>84</dim>
										</port>
									</input>
									<output>
										<port id="2" precision="FP32" names="99">
											<dim>512</dim>
										</port>
									</output>
								</layer>
								<layer id="45" name="aten::add/Multiply_6" type="Const" version="opset1">
									<data element_type="f32" shape="512" offset="1214212" size="2048" />
									<output>
										<port id="0" precision="FP32">
											<dim>512</dim>
										</port>
									</output>
								</layer>
								<layer id="46" name="aten::add/Add_6" type="Add" version="opset1">
									<data auto_broadcast="numpy" />
									<input>
										<port id="0" precision="FP32">
											<dim>512</dim>
										</port>
										<port id="1" precision="FP32">
											<dim>512</dim>
										</port>
									</input>
									<output>
										<port id="2" precision="FP32" names="100">
											<dim>512</dim>
										</port>
									</output>
								</layer>
								<layer id="47" name="aten::elu/Elu_8" type="Elu" version="opset1">
									<data alpha="1" />
									<input>
										<port id="0" precision="FP32">
											<dim>512</dim>
										</port>
									</input>
									<output>
										<port id="1" precision="FP32" names="101,input2.1">
											<dim>512</dim>
										</port>
									</output>
								</layer>
								<layer id="48" name="Transpose_7640" type="Const" version="opset1">
									<data element_type="f32" shape="256, 512" offset="1216260" size="524288" />
									<output>
										<port id="0" precision="FP32">
											<dim>256</dim>
											<dim>512</dim>
										</port>
									</output>
								</layer>
								<layer id="49" name="aten::matmul/MatMul_7" type="MatMul" version="opset1">
									<data transpose_a="false" transpose_b="true" />
									<input>
										<port id="0" precision="FP32">
											<dim>512</dim>
										</port>
										<port id="1" precision="FP32">
											<dim>256</dim>
											<dim>512</dim>
										</port>
									</input>
									<output>
										<port id="2" precision="FP32" names="102">
											<dim>256</dim>
										</port>
									</output>
								</layer>
								<layer id="50" name="aten::add/Multiply_7" type="Const" version="opset1">
									<data element_type="f32" shape="256" offset="1740548" size="1024" />
									<output>
										<port id="0" precision="FP32">
											<dim>256</dim>
										</port>
									</output>
								</layer>
								<layer id="51" name="aten::add/Add_7" type="Add" version="opset1">
									<data auto_broadcast="numpy" />
									<input>
										<port id="0" precision="FP32">
											<dim>256</dim>
										</port>
										<port id="1" precision="FP32">
											<dim>256</dim>
										</port>
									</input>
									<output>
										<port id="2" precision="FP32" names="103">
											<dim>256</dim>
										</port>
									</output>
								</layer>
								<layer id="52" name="aten::elu/Elu_9" type="Elu" version="opset1">
									<data alpha="1" />
									<input>
										<port id="0" precision="FP32">
											<dim>256</dim>
										</port>
									</input>
									<output>
										<port id="1" precision="FP32" names="104,input3.1">
											<dim>256</dim>
										</port>
									</output>
								</layer>
								<layer id="53" name="Transpose_7645" type="Const" version="opset1">
									<data element_type="f32" shape="256, 256" offset="1741572" size="262144" />
									<output>
										<port id="0" precision="FP32">
											<dim>256</dim>
											<dim>256</dim>
										</port>
									</output>
								</layer>
								<layer id="54" name="aten::matmul/MatMul_8" type="MatMul" version="opset1">
									<data transpose_a="false" transpose_b="true" />
									<input>
										<port id="0" precision="FP32">
											<dim>256</dim>
										</port>
										<port id="1" precision="FP32">
											<dim>256</dim>
											<dim>256</dim>
										</port>
									</input>
									<output>
										<port id="2" precision="FP32" names="105">
											<dim>256</dim>
										</port>
									</output>
								</layer>
								<layer id="55" name="aten::add/Multiply_8" type="Const" version="opset1">
									<data element_type="f32" shape="256" offset="2003716" size="1024" />
									<output>
										<port id="0" precision="FP32">
											<dim>256</dim>
										</port>
									</output>
								</layer>
								<layer id="56" name="aten::add/Add_8" type="Add" version="opset1">
									<data auto_broadcast="numpy" />
									<input>
										<port id="0" precision="FP32">
											<dim>256</dim>
										</port>
										<port id="1" precision="FP32">
											<dim>256</dim>
										</port>
									</input>
									<output>
										<port id="2" precision="FP32" names="106">
											<dim>256</dim>
										</port>
									</output>
								</layer>
								<layer id="57" name="aten::elu/Elu_10" type="Elu" version="opset1">
									<data alpha="1" />
									<input>
										<port id="0" precision="FP32">
											<dim>256</dim>
										</port>
									</input>
									<output>
										<port id="1" precision="FP32" names="107,input4.1">
											<dim>256</dim>
										</port>
									</output>
								</layer>
								<layer id="58" name="Transpose_7650" type="Const" version="opset1">
									<data element_type="f32" shape="21, 256" offset="2004740" size="21504" />
									<output>
										<port id="0" precision="FP32">
											<dim>21</dim>
											<dim>256</dim>
										</port>
									</output>
								</layer>
								<layer id="59" name="aten::matmul/MatMul_9" type="MatMul" version="opset1">
									<data transpose_a="false" transpose_b="true" />
									<input>
										<port id="0" precision="FP32">
											<dim>256</dim>
										</port>
										<port id="1" precision="FP32">
											<dim>21</dim>
											<dim>256</dim>
										</port>
									</input>
									<output>
										<port id="2" precision="FP32" names="108">
											<dim>21</dim>
										</port>
									</output>
								</layer>
								<layer id="60" name="aten::add/Multiply_9" type="Const" version="opset1">
									<data element_type="f32" shape="21" offset="2026244" size="84" />
									<output>
										<port id="0" precision="FP32">
											<dim>21</dim>
										</port>
									</output>
								</layer>
								<layer id="61" name="aten::add/Add_9" type="Add" version="opset1">
									<data auto_broadcast="numpy" />
									<input>
										<port id="0" precision="FP32">
											<dim>21</dim>
										</port>
										<port id="1" precision="FP32">
											<dim>21</dim>
										</port>
									</input>
									<output>
										<port id="2" precision="FP32" names="109">
											<dim>21</dim>
										</port>
									</output>
								</layer>
								<layer id="62" name="Result_462" type="Result" version="opset1">
									<input>
										<port id="0" precision="FP32">
											<dim>21</dim>
										</port>
									</input>
								</layer>
								<layer id="37" name="Result_463" type="Result" version="opset1">
									<input>
										<port id="0" precision="FP32">
											<dim>3</dim>
										</port>
									</input>
								</layer>
							</layers>
							<edges>
								<edge from-layer="0" from-port="0" to-layer="3" to-port="0" />
								<edge from-layer="1" from-port="0" to-layer="42" to-port="0" />
								<edge from-layer="2" from-port="0" to-layer="3" to-port="1" />
								<edge from-layer="3" from-port="2" to-layer="5" to-port="0" />
								<edge from-layer="4" from-port="0" to-layer="5" to-port="1" />
								<edge from-layer="5" from-port="2" to-layer="7" to-port="0" />
								<edge from-layer="6" from-port="0" to-layer="7" to-port="1" />
								<edge from-layer="7" from-port="2" to-layer="8" to-port="0" />
								<edge from-layer="8" from-port="1" to-layer="10" to-port="0" />
								<edge from-layer="9" from-port="0" to-layer="10" to-port="1" />
								<edge from-layer="10" from-port="2" to-layer="12" to-port="0" />
								<edge from-layer="11" from-port="0" to-layer="12" to-port="1" />
								<edge from-layer="12" from-port="2" to-layer="14" to-port="0" />
								<edge from-layer="13" from-port="0" to-layer="14" to-port="1" />
								<edge from-layer="14" from-port="2" to-layer="16" to-port="0" />
								<edge from-layer="15" from-port="0" to-layer="16" to-port="1" />
								<edge from-layer="16" from-port="2" to-layer="17" to-port="0" />
								<edge from-layer="17" from-port="1" to-layer="19" to-port="0" />
								<edge from-layer="18" from-port="0" to-layer="19" to-port="1" />
								<edge from-layer="19" from-port="2" to-layer="21" to-port="0" />
								<edge from-layer="20" from-port="0" to-layer="21" to-port="1" />
								<edge from-layer="21" from-port="2" to-layer="22" to-port="0" />
								<edge from-layer="22" from-port="1" to-layer="24" to-port="0" />
								<edge from-layer="23" from-port="0" to-layer="24" to-port="1" />
								<edge from-layer="24" from-port="2" to-layer="26" to-port="0" />
								<edge from-layer="25" from-port="0" to-layer="26" to-port="1" />
								<edge from-layer="26" from-port="2" to-layer="27" to-port="0" />
								<edge from-layer="27" from-port="1" to-layer="29" to-port="0" />
								<edge from-layer="28" from-port="0" to-layer="29" to-port="1" />
								<edge from-layer="29" from-port="2" to-layer="31" to-port="0" />
								<edge from-layer="30" from-port="0" to-layer="31" to-port="1" />
								<edge from-layer="31" from-port="2" to-layer="33" to-port="0" />
								<edge from-layer="32" from-port="0" to-layer="33" to-port="1" />
								<edge from-layer="33" from-port="2" to-layer="34" to-port="0" />
								<edge from-layer="34" from-port="1" to-layer="36" to-port="0" />
								<edge from-layer="35" from-port="0" to-layer="36" to-port="1" />
								<edge from-layer="36" from-port="2" to-layer="37" to-port="0" />
								<edge from-layer="38" from-port="0" to-layer="42" to-port="1" />
								<edge from-layer="39" from-port="0" to-layer="42" to-port="2" />
								<edge from-layer="40" from-port="0" to-layer="42" to-port="3" />
								<edge from-layer="41" from-port="0" to-layer="42" to-port="4" />
								<edge from-layer="42" from-port="5" to-layer="44" to-port="0" />
								<edge from-layer="43" from-port="0" to-layer="44" to-port="1" />
								<edge from-layer="44" from-port="2" to-layer="46" to-port="0" />
								<edge from-layer="45" from-port="0" to-layer="46" to-port="1" />
								<edge from-layer="46" from-port="2" to-layer="47" to-port="0" />
								<edge from-layer="47" from-port="1" to-layer="49" to-port="0" />
								<edge from-layer="48" from-port="0" to-layer="49" to-port="1" />
								<edge from-layer="49" from-port="2" to-layer="51" to-port="0" />
								<edge from-layer="50" from-port="0" to-layer="51" to-port="1" />
								<edge from-layer="51" from-port="2" to-layer="52" to-port="0" />
								<edge from-layer="52" from-port="1" to-layer="54" to-port="0" />
								<edge from-layer="53" from-port="0" to-layer="54" to-port="1" />
								<edge from-layer="54" from-port="2" to-layer="56" to-port="0" />
								<edge from-layer="55" from-port="0" to-layer="56" to-port="1" />
								<edge from-layer="56" from-port="2" to-layer="57" to-port="0" />
								<edge from-layer="57" from-port="1" to-layer="59" to-port="0" />
								<edge from-layer="58" from-port="0" to-layer="59" to-port="1" />
								<edge from-layer="59" from-port="2" to-layer="61" to-port="0" />
								<edge from-layer="60" from-port="0" to-layer="61" to-port="1" />
								<edge from-layer="61" from-port="2" to-layer="62" to-port="0" />
							</edges>
							<rt_info />
						</then_body>
						<else_body>
							<layers>
								<layer id="2" name="Parameter_464" type="Parameter" version="opset1">
									<data shape="?" element_type="f32" />
									<output>
										<port id="0" precision="FP32" names="2">
											<dim>-1</dim>
										</port>
									</output>
								</layer>
								<layer id="1" name="Parameter_1043" type="Parameter" version="opset1">
									<data shape="..790" element_type="f32" />
									<output>
										<port id="0" precision="FP32" names="71_3">
											<dim>-1</dim>
										</port>
									</output>
								</layer>
								<layer id="0" name="Parameter_1060" type="Parameter" version="opset1">
									<data shape="..874" element_type="f32" />
									<output>
										<port id="0" precision="FP32" names="80_3">
											<dim>-1</dim>
										</port>
									</output>
								</layer>
								<layer id="3" name="Constant_7746" type="Const" version="opset1">
									<data element_type="f32" shape="1" offset="2026328" size="4" />
									<output>
										<port id="0" precision="FP32">
											<dim>1</dim>
										</port>
									</output>
								</layer>
								<layer id="4" name="aten::eq/Equal_2" type="Equal" version="opset1">
									<data auto_broadcast="numpy" />
									<input>
										<port id="0" precision="FP32">
											<dim>-1</dim>
										</port>
										<port id="1" precision="FP32">
											<dim>1</dim>
										</port>
									</input>
									<output>
										<port id="2" precision="BOOL" names="131">
											<dim>-1</dim>
										</port>
									</output>
								</layer>
								<layer id="5" name="prim::If/If_2" type="If" version="opset8">
									<else_port_map>
										<output external_port_id="3" internal_layer_id="3" />
										<output external_port_id="4" internal_layer_id="1" />
									</else_port_map>
									<then_port_map>
										<input external_port_id="1" internal_layer_id="0" />
										<input external_port_id="2" internal_layer_id="1" />
										<output external_port_id="3" internal_layer_id="57" />
										<output external_port_id="4" internal_layer_id="32" />
									</then_port_map>
									<input>
										<port id="0" precision="BOOL">
											<dim>-1</dim>
										</port>
										<port id="1" precision="FP32">
											<dim>-1</dim>
										</port>
										<port id="2" precision="FP32">
											<dim>-1</dim>
										</port>
									</input>
									<output>
										<port id="3" precision="FP32" names="132,actions1">
											<dim>21</dim>
										</port>
										<port id="4" precision="FP32" names="133,vel_est1">
											<dim>3</dim>
										</port>
									</output>
									<then_body>
										<layers>
											<layer id="1" name="Parameter_471" type="Parameter" version="opset1">
												<data shape="..874" element_type="f32" />
												<output>
													<port id="0" precision="FP32" names="80_2">
														<dim>-1</dim>
													</port>
												</output>
											</layer>
											<layer id="0" name="Parameter_543" type="Parameter" version="opset1">
												<data shape="..790" element_type="f32" />
												<output>
													<port id="0" precision="FP32" names="71_2">
														<dim>-1</dim>
													</port>
												</output>
											</layer>
											<layer id="2" name="Concat_6026" type="Const" version="opset1">
												<data element_type="i64" shape="2" offset="1006768" size="16" />
												<output>
													<port id="0" precision="I64">
														<dim>2</dim>
													</port>
												</output>
											</layer>
											<layer id="3" name="aten::reshape/Reshape_2" type="Reshape" version="opset1">
												<data special_zero="false" />
												<input>
													<port id="0" precision="FP32">
														<dim>-1</dim>
													</port>
													<port id="1" precision="I64">
														<dim>2</dim>
													</port>
												</input>
												<output>
													<port id="2" precision="FP32" names="147">
														<dim>-1</dim>
														<dim>79</dim>
													</port>
												</output>
											</layer>
											<layer id="4" name="Transpose_7655" type="Const" version="opset1">
												<data element_type="f32" shape="30, 79" offset="2026332" size="9480" />
												<output>
													<port id="0" precision="FP32">
														<dim>30</dim>
														<dim>79</dim>
													</port>
												</output>
											</layer>
											<layer id="5" name="aten::matmul/MatMul_10" type="MatMul" version="opset1">
												<data transpose_a="false" transpose_b="true" />
												<input>
													<port id="0" precision="FP32">
														<dim>-1</dim>
														<dim>79</dim>
													</port>
													<port id="1" precision="FP32">
														<dim>30</dim>
														<dim>79</dim>
													</port>
												</input>
												<output>
													<port id="2" precision="FP32" names="148">
														<dim>-1</dim>
														<dim>30</dim>
													</port>
												</output>
											</layer>
											<layer id="6" name="Constant_7747" type="Const" version="opset1">
												<data element_type="f32" shape="1, 30" offset="2035812" size="120" />
												<output>
													<port id="0" precision="FP32">
														<dim>1</dim>
														<dim>30</dim>
													</port>
												</output>
											</layer>
											<layer id="7" name="aten::add/Add_10" type="Add" version="opset1">
												<data auto_broadcast="numpy" />
												<input>
													<port id="0" precision="FP32">
														<dim>-1</dim>
														<dim>30</dim>
													</port>
													<port id="1" precision="FP32">
														<dim>1</dim>
														<dim>30</dim>
													</port>
												</input>
												<output>
													<port id="2" precision="FP32" names="149">
														<dim>-1</dim>
														<dim>30</dim>
													</port>
												</output>
											</layer>
											<layer id="8" name="aten::elu/Elu_11" type="Elu" version="opset1">
												<data alpha="1" />
												<input>
													<port id="0" precision="FP32">
														<dim>-1</dim>
														<dim>30</dim>
													</port>
												</input>
												<output>
													<port id="1" precision="FP32" names="150,projection0.1">
														<dim>-1</dim>
														<dim>30</dim>
													</port>
												</output>
											</layer>
											<layer id="9" name="Constant_564" type="Const" version="opset1">
												<data element_type="i64" shape="3" offset="2035932" size="24" />
												<output>
													<port id="0" precision="I64" names="151">
														<dim>3</dim>
													</port>
												</output>
											</layer>
											<layer id="10" name="aten::reshape/Reshape_3" type="Reshape" version="opset1">
												<data special_zero="false" />
												<input>
													<port id="0" precision="FP32">
														<dim>-1</dim>
														<dim>30</dim>
													</port>
													<port id="1" precision="I64">
														<dim>3</dim>
													</port>
												</input>
												<output>
													<port id="2" precision="FP32" names="152">
														<dim>1</dim>
														<dim>10</dim>
														<dim>-1</dim>
													</port>
												</output>
											</layer>
											<layer id="11" name="Constant_572" type="Const" version="opset1">
												<data element_type="i64" shape="3" offset="1016408" size="24" />
												<output>
													<port id="0" precision="I64" names="153">
														<dim>3</dim>
													</port>
												</output>
											</layer>
											<layer id="12" name="aten::permute/Transpose_1" type="Transpose" version="opset1">
												<input>
													<port id="0" precision="FP32">
														<dim>1</dim>
														<dim>10</dim>
														<dim>-1</dim>
													</port>
													<port id="1" precision="I64">
														<dim>3</dim>
													</port>
												</input>
												<output>
													<port id="2" precision="FP32" names="154">
														<dim>1</dim>
														<dim>-1</dim>
														<dim>10</dim>
													</port>
												</output>
											</layer>
											<layer id="13" name="Constant_17" type="Const" version="opset1">
												<data element_type="f32" shape="20, 30, 4" offset="2035956" size="9600" />
												<output>
													<port id="0" precision="FP32" names="9,9_1,9_2,9_3">
														<dim>20</dim>
														<dim>30</dim>
														<dim>4</dim>
													</port>
												</output>
											</layer>
											<layer id="14" name="aten::conv1d/Convolution_3" type="Convolution" version="opset1">
												<data strides="2" dilations="1" pads_begin="0" pads_end="0" auto_pad="explicit" />
												<input>
													<port id="0" precision="FP32">
														<dim>1</dim>
														<dim>-1</dim>
														<dim>10</dim>
													</port>
													<port id="1" precision="FP32">
														<dim>20</dim>
														<dim>30</dim>
														<dim>4</dim>
													</port>
												</input>
												<output>
													<port id="2" precision="FP32">
														<dim>1</dim>
														<dim>20</dim>
														<dim>4</dim>
													</port>
												</output>
											</layer>
											<layer id="15" name="aten::conv1d/Reshape_3" type="Const" version="opset1">
												<data element_type="f32" shape="1, 20, 1" offset="2045556" size="80" />
												<output>
													<port id="0" precision="FP32">
														<dim>1</dim>
														<dim>20</dim>
														<dim>1</dim>
													</port>
												</output>
											</layer>
											<layer id="16" name="aten::conv1d/Add_3" type="Add" version="opset1">
												<data auto_broadcast="numpy" />
												<input>
													<port id="0" precision="FP32">
														<dim>1</dim>
														<dim>20</dim>
														<dim>4</dim>
													</port>
													<port id="1" precision="FP32">
														<dim>1</dim>
														<dim>20</dim>
														<dim>1</dim>
													</port>
												</input>
												<output>
													<port id="2" precision="FP32" names="156,input14.1">
														<dim>1</dim>
														<dim>20</dim>
														<dim>4</dim>
													</port>
												</output>
											</layer>
											<layer id="17" name="aten::elu/Elu_12" type="Elu" version="opset1">
												<data alpha="1" />
												<input>
													<port id="0" precision="FP32">
														<dim>1</dim>
														<dim>20</dim>
														<dim>4</dim>
													</port>
												</input>
												<output>
													<port id="1" precision="FP32" names="157,input15.1">
														<dim>1</dim>
														<dim>20</dim>
														<dim>4</dim>
													</port>
												</output>
											</layer>
											<layer id="18" name="Constant_13" type="Const" version="opset1">
												<data element_type="f32" shape="10, 20, 2" offset="2045636" size="1600" />
												<output>
													<port id="0" precision="FP32" names="7,7_1,7_2,7_3">
														<dim>10</dim>
														<dim>20</dim>
														<dim>2</dim>
													</port>
												</output>
											</layer>
											<layer id="19" name="aten::conv1d/Convolution_4" type="Convolution" version="opset1">
												<data strides="1" dilations="1" pads_begin="0" pads_end="0" auto_pad="explicit" />
												<input>
													<port id="0" precision="FP32">
														<dim>1</dim>
														<dim>20</dim>
														<dim>4</dim>
													</port>
													<port id="1" precision="FP32">
														<dim>10</dim>
														<dim>20</dim>
														<dim>2</dim>
													</port>
												</input>
												<output>
													<port id="2" precision="FP32">
														<dim>1</dim>
														<dim>10</dim>
														<dim>3</dim>
													</port>
												</output>
											</layer>
											<layer id="20" name="aten::conv1d/Reshape_4" type="Const" version="opset1">
												<data element_type="f32" shape="1, 10, 1" offset="2047236" size="40" />
												<output>
													<port id="0" precision="FP32">
														<dim>1</dim>
														<dim>10</dim>
														<dim>1</dim>
													</port>
												</output>
											</layer>
											<layer id="21" name="aten::conv1d/Add_4" type="Add" version="opset1">
												<data auto_broadcast="numpy" />
												<input>
													<port id="0" precision="FP32">
														<dim>1</dim>
														<dim>10</dim>
														<dim>3</dim>
													</port>
													<port id="1" precision="FP32">
														<dim>1</dim>
														<dim>10</dim>
														<dim>1</dim>
													</port>
												</input>
												<output>
													<port id="2" precision="FP32" names="158,input16.1">
														<dim>1</dim>
														<dim>10</dim>
														<dim>3</dim>
													</port>
												</output>
											</layer>
											<layer id="22" name="aten::elu/Elu_13" type="Elu" version="opset1">
												<data alpha="1" />
												<input>
													<port id="0" precision="FP32">
														<dim>1</dim>
														<dim>10</dim>
														<dim>3</dim>
													</port>
												</input>
												<output>
													<port id="1" precision="FP32" names="159,input17.1">
														<dim>1</dim>
														<dim>10</dim>
														<dim>3</dim>
													</port>
												</output>
											</layer>
											<layer id="23" name="Concat_6032" type="Const" version="opset1">
												<data element_type="i64" shape="2" offset="1041792" size="16" />
												<output>
													<port id="0" precision="I64">
														<dim>2</dim>
													</port>
												</output>
											</layer>
											<layer id="24" name="aten::flatten/Reshape_1" type="Reshape" version="opset1">
												<data special_zero="true" />
												<input>
													<port id="0" precision="FP32">
														<dim>1</dim>
														<dim>10</dim>
														<dim>3</dim>
													</port>
													<port id="1" precision="I64">
														<dim>2</dim>
													</port>
												</input>
												<output>
													<port id="2" precision="FP32" names="160,output1.1">
														<dim>1</dim>
														<dim>30</dim>
													</port>
												</output>
											</layer>
											<layer id="25" name="Transpose_7664" type="Const" version="opset1">
												<data element_type="f32" shape="3, 30" offset="2047276" size="360" />
												<output>
													<port id="0" precision="FP32">
														<dim>3</dim>
														<dim>30</dim>
													</port>
												</output>
											</layer>
											<layer id="26" name="aten::matmul/MatMul_11" type="MatMul" version="opset1">
												<data transpose_a="false" transpose_b="true" />
												<input>
													<port id="0" precision="FP32">
														<dim>1</dim>
														<dim>30</dim>
													</port>
													<port id="1" precision="FP32">
														<dim>3</dim>
														<dim>30</dim>
													</port>
												</input>
												<output>
													<port id="2" precision="FP32" names="161">
														<dim>1</dim>
														<dim>3</dim>
													</port>
												</output>
											</layer>
											<layer id="27" name="Constant_7748" type="Const" version="opset1">
												<data element_type="f32" shape="1, 3" offset="2047636" size="12" />
												<output>
													<port id="0" precision="FP32">
														<dim>1</dim>
														<dim>3</dim>
													</port>
												</output>
											</layer>
											<layer id="28" name="aten::add/Add_11" type="Add" version="opset1">
												<data auto_broadcast="numpy" />
												<input>
													<port id="0" precision="FP32">
														<dim>1</dim>
														<dim>3</dim>
													</port>
													<port id="1" precision="FP32">
														<dim>1</dim>
														<dim>3</dim>
													</port>
												</input>
												<output>
													<port id="2" precision="FP32" names="162">
														<dim>1</dim>
														<dim>3</dim>
													</port>
												</output>
											</layer>
											<layer id="29" name="aten::elu/Elu_14" type="Elu" version="opset1">
												<data alpha="1" />
												<input>
													<port id="0" precision="FP32">
														<dim>1</dim>
														<dim>3</dim>
													</port>
												</input>
												<output>
													<port id="1" precision="FP32" names="163,output2.1">
														<dim>1</dim>
														<dim>3</dim>
													</port>
												</output>
											</layer>
											<layer id="30" name="52_1_1" type="Const" version="opset1">
												<data element_type="i64" shape="" offset="28" size="8" />
												<output>
													<port id="0" precision="I64" names="52,52_1,52_2,52_3,52_4" />
												</output>
											</layer>
											<layer id="31" name="aten::squeeze/Squeeze_1" type="Squeeze" version="opset1">
												<input>
													<port id="0" precision="FP32">
														<dim>1</dim>
														<dim>3</dim>
													</port>
													<port id="1" precision="I64" />
												</input>
												<output>
													<port id="2" precision="FP32" names="164,vel_est1.1">
														<dim>3</dim>
													</port>
												</output>
											</layer>
											<layer id="33" name="aten::slice/Constant_5" type="Const" version="opset1">
												<data element_type="i32" shape="1" offset="0" size="4" />
												<output>
													<port id="0" precision="I32">
														<dim>1</dim>
													</port>
												</output>
											</layer>
											<layer id="34" name="aten::slice/Reshape_25_1" type="Const" version="opset1">
												<data element_type="i64" shape="1" offset="4" size="8" />
												<output>
													<port id="0" precision="I64">
														<dim>1</dim>
													</port>
												</output>
											</layer>
											<layer id="35" name="aten::slice/Reshape_26_1" type="Const" version="opset1">
												<data element_type="i64" shape="1" offset="20" size="8" />
												<output>
													<port id="0" precision="I64">
														<dim>1</dim>
													</port>
												</output>
											</layer>
											<layer id="36" name="aten::slice/Reshape_27_1" type="Const" version="opset1">
												<data element_type="i64" shape="1" offset="28" size="8" />
												<output>
													<port id="0" precision="I64">
														<dim>1</dim>
													</port>
												</output>
											</layer>
											<layer id="37" name="aten::slice/Slice_8" type="Slice" version="opset8">
												<input>
													<port id="0" precision="FP32">
														<dim>-1</dim>
													</port>
													<port id="1" precision="I32">
														<dim>1</dim>
													</port>
													<port id="2" precision="I64">
														<dim>1</dim>
													</port>
													<port id="3" precision="I64">
														<dim>1</dim>
													</port>
													<port id="4" precision="I64">
														<dim>1</dim>
													</port>
												</input>
												<output>
													<port id="5" precision="FP32" names="134">
														<dim>-1</dim>
													</port>
												</output>
											</layer>
											<layer id="38" name="Transpose_7669" type="Const" version="opset1">
												<data element_type="f32" shape="512, 84" offset="2047648" size="172032" />
												<output>
													<port id="0" precision="FP32">
														<dim>512</dim>
														<dim>84</dim>
													</port>
												</output>
											</layer>
											<layer id="39" name="aten::matmul/MatMul_12" type="MatMul" version="opset1">
												<data transpose_a="false" transpose_b="true" />
												<input>
													<port id="0" precision="FP32">
														<dim>-1</dim>
													</port>
													<port id="1" precision="FP32">
														<dim>512</dim>
														<dim>84</dim>
													</port>
												</input>
												<output>
													<port id="2" precision="FP32" names="135">
														<dim>512</dim>
													</port>
												</output>
											</layer>
											<layer id="40" name="aten::add/Multiply_12" type="Const" version="opset1">
												<data element_type="f32" shape="512" offset="2219680" size="2048" />
												<output>
													<port id="0" precision="FP32">
														<dim>512</dim>
													</port>
												</output>
											</layer>
											<layer id="41" name="aten::add/Add_12" type="Add" version="opset1">
												<data auto_broadcast="numpy" />
												<input>
													<port id="0" precision="FP32">
														<dim>512</dim>
													</port>
													<port id="1" precision="FP32">
														<dim>512</dim>
													</port>
												</input>
												<output>
													<port id="2" precision="FP32" names="136">
														<dim>512</dim>
													</port>
												</output>
											</layer>
											<layer id="42" name="aten::elu/Elu_15" type="Elu" version="opset1">
												<data alpha="1" />
												<input>
													<port id="0" precision="FP32">
														<dim>512</dim>
													</port>
												</input>
												<output>
													<port id="1" precision="FP32" names="137,input11.1">
														<dim>512</dim>
													</port>
												</output>
											</layer>
											<layer id="43" name="Transpose_7674" type="Const" version="opset1">
												<data element_type="f32" shape="256, 512" offset="2221728" size="524288" />
												<output>
													<port id="0" precision="FP32">
														<dim>256</dim>
														<dim>512</dim>
													</port>
												</output>
											</layer>
											<layer id="44" name="aten::matmul/MatMul_13" type="MatMul" version="opset1">
												<data transpose_a="false" transpose_b="true" />
												<input>
													<port id="0" precision="FP32">
														<dim>512</dim>
													</port>
													<port id="1" precision="FP32">
														<dim>256</dim>
														<dim>512</dim>
													</port>
												</input>
												<output>
													<port id="2" precision="FP32" names="138">
														<dim>256</dim>
													</port>
												</output>
											</layer>
											<layer id="45" name="aten::add/Multiply_13" type="Const" version="opset1">
												<data element_type="f32" shape="256" offset="2746016" size="1024" />
												<output>
													<port id="0" precision="FP32">
														<dim>256</dim>
													</port>
												</output>
											</layer>
											<layer id="46" name="aten::add/Add_13" type="Add" version="opset1">
												<data auto_broadcast="numpy" />
												<input>
													<port id="0" precision="FP32">
														<dim>256</dim>
													</port>
													<port id="1" precision="FP32">
														<dim>256</dim>
													</port>
												</input>
												<output>
													<port id="2" precision="FP32" names="139">
														<dim>256</dim>
													</port>
												</output>
											</layer>
											<layer id="47" name="aten::elu/Elu_16" type="Elu" version="opset1">
												<data alpha="1" />
												<input>
													<port id="0" precision="FP32">
														<dim>256</dim>
													</port>
												</input>
												<output>
													<port id="1" precision="FP32" names="140,input12.1">
														<dim>256</dim>
													</port>
												</output>
											</layer>
											<layer id="48" name="Transpose_7679" type="Const" version="opset1">
												<data element_type="f32" shape="256, 256" offset="2747040" size="262144" />
												<output>
													<port id="0" precision="FP32">
														<dim>256</dim>
														<dim>256</dim>
													</port>
												</output>
											</layer>
											<layer id="49" name="aten::matmul/MatMul_14" type="MatMul" version="opset1">
												<data transpose_a="false" transpose_b="true" />
												<input>
													<port id="0" precision="FP32">
														<dim>256</dim>
													</port>
													<port id="1" precision="FP32">
														<dim>256</dim>
														<dim>256</dim>
													</port>
												</input>
												<output>
													<port id="2" precision="FP32" names="141">
														<dim>256</dim>
													</port>
												</output>
											</layer>
											<layer id="50" name="aten::add/Multiply_14" type="Const" version="opset1">
												<data element_type="f32" shape="256" offset="3009184" size="1024" />
												<output>
													<port id="0" precision="FP32">
														<dim>256</dim>
													</port>
												</output>
											</layer>
											<layer id="51" name="aten::add/Add_14" type="Add" version="opset1">
												<data auto_broadcast="numpy" />
												<input>
													<port id="0" precision="FP32">
														<dim>256</dim>
													</port>
													<port id="1" precision="FP32">
														<dim>256</dim>
													</port>
												</input>
												<output>
													<port id="2" precision="FP32" names="142">
														<dim>256</dim>
													</port>
												</output>
											</layer>
											<layer id="52" name="aten::elu/Elu_17" type="Elu" version="opset1">
												<data alpha="1" />
												<input>
													<port id="0" precision="FP32">
														<dim>256</dim>
													</port>
												</input>
												<output>
													<port id="1" precision="FP32" names="143,input13.1">
														<dim>256</dim>
													</port>
												</output>
											</layer>
											<layer id="53" name="Transpose_7684" type="Const" version="opset1">
												<data element_type="f32" shape="21, 256" offset="3010208" size="21504" />
												<output>
													<port id="0" precision="FP32">
														<dim>21</dim>
														<dim>256</dim>
													</port>
												</output>
											</layer>
											<layer id="54" name="aten::matmul/MatMul_15" type="MatMul" version="opset1">
												<data transpose_a="false" transpose_b="true" />
												<input>
													<port id="0" precision="FP32">
														<dim>256</dim>
													</port>
													<port id="1" precision="FP32">
														<dim>21</dim>
														<dim>256</dim>
													</port>
												</input>
												<output>
													<port id="2" precision="FP32" names="144">
														<dim>21</dim>
													</port>
												</output>
											</layer>
											<layer id="55" name="aten::add/Multiply_15" type="Const" version="opset1">
												<data element_type="f32" shape="21" offset="3031712" size="84" />
												<output>
													<port id="0" precision="FP32">
														<dim>21</dim>
													</port>
												</output>
											</layer>
											<layer id="56" name="aten::add/Add_15" type="Add" version="opset1">
												<data auto_broadcast="numpy" />
												<input>
													<port id="0" precision="FP32">
														<dim>21</dim>
													</port>
													<port id="1" precision="FP32">
														<dim>21</dim>
													</port>
												</input>
												<output>
													<port id="2" precision="FP32" names="145">
														<dim>21</dim>
													</port>
												</output>
											</layer>
											<layer id="57" name="Result_665" type="Result" version="opset1">
												<input>
													<port id="0" precision="FP32">
														<dim>21</dim>
													</port>
												</input>
											</layer>
											<layer id="32" name="Result_666" type="Result" version="opset1">
												<input>
													<port id="0" precision="FP32">
														<dim>3</dim>
													</port>
												</input>
											</layer>
										</layers>
										<edges>
											<edge from-layer="0" from-port="0" to-layer="3" to-port="0" />
											<edge from-layer="1" from-port="0" to-layer="37" to-port="0" />
											<edge from-layer="2" from-port="0" to-layer="3" to-port="1" />
											<edge from-layer="3" from-port="2" to-layer="5" to-port="0" />
											<edge from-layer="4" from-port="0" to-layer="5" to-port="1" />
											<edge from-layer="5" from-port="2" to-layer="7" to-port="0" />
											<edge from-layer="6" from-port="0" to-layer="7" to-port="1" />
											<edge from-layer="7" from-port="2" to-layer="8" to-port="0" />
											<edge from-layer="8" from-port="1" to-layer="10" to-port="0" />
											<edge from-layer="9" from-port="0" to-layer="10" to-port="1" />
											<edge from-layer="10" from-port="2" to-layer="12" to-port="0" />
											<edge from-layer="11" from-port="0" to-layer="12" to-port="1" />
											<edge from-layer="12" from-port="2" to-layer="14" to-port="0" />
											<edge from-layer="13" from-port="0" to-layer="14" to-port="1" />
											<edge from-layer="14" from-port="2" to-layer="16" to-port="0" />
											<edge from-layer="15" from-port="0" to-layer="16" to-port="1" />
											<edge from-layer="16" from-port="2" to-layer="17" to-port="0" />
											<edge from-layer="17" from-port="1" to-layer="19" to-port="0" />
											<edge from-layer="18" from-port="0" to-layer="19" to-port="1" />
											<edge from-layer="19" from-port="2" to-layer="21" to-port="0" />
											<edge from-layer="20" from-port="0" to-layer="21" to-port="1" />
											<edge from-layer="21" from-port="2" to-layer="22" to-port="0" />
											<edge from-layer="22" from-port="1" to-layer="24" to-port="0" />
											<edge from-layer="23" from-port="0" to-layer="24" to-port="1" />
											<edge from-layer="24" from-port="2" to-layer="26" to-port="0" />
											<edge from-layer="25" from-port="0" to-layer="26" to-port="1" />
											<edge from-layer="26" from-port="2" to-layer="28" to-port="0" />
											<edge from-layer="27" from-port="0" to-layer="28" to-port="1" />
											<edge from-layer="28" from-port="2" to-layer="29" to-port="0" />
											<edge from-layer="29" from-port="1" to-layer="31" to-port="0" />
											<edge from-layer="30" from-port="0" to-layer="31" to-port="1" />
											<edge from-layer="31" from-port="2" to-layer="32" to-port="0" />
											<edge from-layer="33" from-port="0" to-layer="37" to-port="1" />
											<edge from-layer="34" from-port="0" to-layer="37" to-port="2" />
											<edge from-layer="35" from-port="0" to-layer="37" to-port="3" />
											<edge from-layer="36" from-port="0" to-layer="37" to-port="4" />
											<edge from-layer="37" from-port="5" to-layer="39" to-port="0" />
											<edge from-layer="38" from-port="0" to-layer="39" to-port="1" />
											<edge from-layer="39" from-port="2" to-layer="41" to-port="0" />
											<edge from-layer="40" from-port="0" to-layer="41" to-port="1" />
											<edge from-layer="41" from-port="2" to-layer="42" to-port="0" />
											<edge from-layer="42" from-port="1" to-layer="44" to-port="0" />
											<edge from-layer="43" from-port="0" to-layer="44" to-port="1" />
											<edge from-layer="44" from-port="2" to-layer="46" to-port="0" />
											<edge from-layer="45" from-port="0" to-layer="46" to-port="1" />
											<edge from-layer="46" from-port="2" to-layer="47" to-port="0" />
											<edge from-layer="47" from-port="1" to-layer="49" to-port="0" />
											<edge from-layer="48" from-port="0" to-layer="49" to-port="1" />
											<edge from-layer="49" from-port="2" to-layer="51" to-port="0" />
											<edge from-layer="50" from-port="0" to-layer="51" to-port="1" />
											<edge from-layer="51" from-port="2" to-layer="52" to-port="0" />
											<edge from-layer="52" from-port="1" to-layer="54" to-port="0" />
											<edge from-layer="53" from-port="0" to-layer="54" to-port="1" />
											<edge from-layer="54" from-port="2" to-layer="56" to-port="0" />
											<edge from-layer="55" from-port="0" to-layer="56" to-port="1" />
											<edge from-layer="56" from-port="2" to-layer="57" to-port="0" />
										</edges>
										<rt_info />
									</then_body>
									<else_body>
										<layers>
											<layer id="0" name="Constant_77_1_1" type="Const" version="opset1">
												<data element_type="f32" shape="3" offset="76" size="12" />
												<output>
													<port id="0" precision="FP32" names="40,40_1,40_2,40_3,40_4">
														<dim>3</dim>
													</port>
												</output>
											</layer>
											<layer id="2" name="Constant_5" type="Const" version="opset1">
												<data element_type="f32" shape="21" offset="3031796" size="84" />
												<output>
													<port id="0" precision="FP32" names="3,3_1,3_2,3_3">
														<dim>21</dim>
													</port>
												</output>
											</layer>
											<layer id="3" name="Result_668" type="Result" version="opset1">
												<input>
													<port id="0" precision="FP32">
														<dim>21</dim>
													</port>
												</input>
											</layer>
											<layer id="1" name="Result_670" type="Result" version="opset1">
												<input>
													<port id="0" precision="FP32">
														<dim>3</dim>
													</port>
												</input>
											</layer>
										</layers>
										<edges>
											<edge from-layer="0" from-port="0" to-layer="1" to-port="0" />
											<edge from-layer="2" from-port="0" to-layer="3" to-port="0" />
										</edges>
										<rt_info />
									</else_body>
								</layer>
								<layer id="7" name="Result_1093" type="Result" version="opset1">
									<input>
										<port id="0" precision="FP32">
											<dim>21</dim>
										</port>
									</input>
								</layer>
								<layer id="6" name="Result_1094" type="Result" version="opset1">
									<input>
										<port id="0" precision="FP32">
											<dim>3</dim>
										</port>
									</input>
								</layer>
							</layers>
							<edges>
								<edge from-layer="0" from-port="0" to-layer="5" to-port="2" />
								<edge from-layer="1" from-port="0" to-layer="5" to-port="1" />
								<edge from-layer="2" from-port="0" to-layer="4" to-port="0" />
								<edge from-layer="3" from-port="0" to-layer="4" to-port="1" />
								<edge from-layer="4" from-port="2" to-layer="5" to-port="0" />
								<edge from-layer="5" from-port="4" to-layer="6" to-port="0" />
								<edge from-layer="5" from-port="3" to-layer="7" to-port="0" />
							</edges>
							<rt_info />
						</else_body>
					</layer>
					<layer id="9" name="Result_2895" type="Result" version="opset1">
						<input>
							<port id="0" precision="FP32">
								<dim>21</dim>
							</port>
						</input>
					</layer>
					<layer id="8" name="Result_2896" type="Result" version="opset1">
						<input>
							<port id="0" precision="FP32">
								<dim>3</dim>
							</port>
						</input>
					</layer>
				</layers>
				<edges>
					<edge from-layer="0" from-port="0" to-layer="7" to-port="5" />
					<edge from-layer="1" from-port="0" to-layer="7" to-port="4" />
					<edge from-layer="2" from-port="0" to-layer="7" to-port="3" />
					<edge from-layer="3" from-port="0" to-layer="7" to-port="2" />
					<edge from-layer="4" from-port="0" to-layer="6" to-port="0" />
					<edge from-layer="4" from-port="0" to-layer="7" to-port="1" />
					<edge from-layer="5" from-port="0" to-layer="6" to-port="1" />
					<edge from-layer="6" from-port="2" to-layer="7" to-port="0" />
					<edge from-layer="7" from-port="7" to-layer="8" to-port="0" />
					<edge from-layer="7" from-port="6" to-layer="9" to-port="0" />
				</edges>
				<rt_info />
			</else_body>
		</layer>
		<layer id="46" name="aten::cat/Concat_2" type="Concat" version="opset1">
			<data axis="0" />
			<input>
				<port id="0" precision="FP32">
					<dim>21</dim>
				</port>
				<port id="1" precision="FP32">
					<dim>3</dim>
				</port>
			</input>
			<output>
				<port id="2" precision="FP32">
					<dim>24</dim>
				</port>
			</output>
		</layer>
		<layer id="47" name="Result_5062" type="Result" version="opset1">
			<input>
				<port id="0" precision="FP32">
					<dim>24</dim>
				</port>
			</input>
		</layer>
	</layers>
	<edges>
		<edge from-layer="0" from-port="0" to-layer="45" to-port="1" />
		<edge from-layer="0" from-port="0" to-layer="3" to-port="0" />
		<edge from-layer="1" from-port="0" to-layer="4" to-port="0" />
		<edge from-layer="2" from-port="0" to-layer="3" to-port="1" />
		<edge from-layer="3" from-port="2" to-layer="45" to-port="0" />
		<edge from-layer="4" from-port="1" to-layer="42" to-port="0" />
		<edge from-layer="4" from-port="1" to-layer="37" to-port="0" />
		<edge from-layer="4" from-port="1" to-layer="30" to-port="0" />
		<edge from-layer="4" from-port="1" to-layer="24" to-port="0" />
		<edge from-layer="4" from-port="1" to-layer="19" to-port="0" />
		<edge from-layer="4" from-port="1" to-layer="9" to-port="0" />
		<edge from-layer="4" from-port="1" to-layer="14" to-port="0" />
		<edge from-layer="5" from-port="0" to-layer="9" to-port="1" />
		<edge from-layer="6" from-port="0" to-layer="9" to-port="2" />
		<edge from-layer="7" from-port="0" to-layer="9" to-port="3" />
		<edge from-layer="8" from-port="0" to-layer="9" to-port="4" />
		<edge from-layer="9" from-port="5" to-layer="45" to-port="2" />
		<edge from-layer="10" from-port="0" to-layer="14" to-port="1" />
		<edge from-layer="11" from-port="0" to-layer="14" to-port="2" />
		<edge from-layer="12" from-port="0" to-layer="14" to-port="3" />
		<edge from-layer="13" from-port="0" to-layer="14" to-port="4" />
		<edge from-layer="14" from-port="5" to-layer="43" to-port="0" />
		<edge from-layer="14" from-port="5" to-layer="45" to-port="3" />
		<edge from-layer="15" from-port="0" to-layer="19" to-port="1" />
		<edge from-layer="16" from-port="0" to-layer="19" to-port="2" />
		<edge from-layer="17" from-port="0" to-layer="19" to-port="3" />
		<edge from-layer="18" from-port="0" to-layer="19" to-port="4" />
		<edge from-layer="19" from-port="5" to-layer="25" to-port="1" />
		<edge from-layer="19" from-port="5" to-layer="31" to-port="1" />
		<edge from-layer="19" from-port="5" to-layer="32" to-port="0" />
		<edge from-layer="20" from-port="0" to-layer="24" to-port="1" />
		<edge from-layer="21" from-port="0" to-layer="24" to-port="2" />
		<edge from-layer="22" from-port="0" to-layer="24" to-port="3" />
		<edge from-layer="23" from-port="0" to-layer="24" to-port="4" />
		<edge from-layer="24" from-port="5" to-layer="25" to-port="0" />
		<edge from-layer="25" from-port="2" to-layer="32" to-port="1" />
		<edge from-layer="26" from-port="0" to-layer="30" to-port="1" />
		<edge from-layer="27" from-port="0" to-layer="30" to-port="2" />
		<edge from-layer="28" from-port="0" to-layer="30" to-port="3" />
		<edge from-layer="29" from-port="0" to-layer="30" to-port="4" />
		<edge from-layer="30" from-port="5" to-layer="31" to-port="0" />
		<edge from-layer="31" from-port="2" to-layer="32" to-port="2" />
		<edge from-layer="32" from-port="3" to-layer="45" to-port="4" />
		<edge from-layer="33" from-port="0" to-layer="37" to-port="1" />
		<edge from-layer="34" from-port="0" to-layer="37" to-port="2" />
		<edge from-layer="35" from-port="0" to-layer="37" to-port="3" />
		<edge from-layer="36" from-port="0" to-layer="37" to-port="4" />
		<edge from-layer="37" from-port="5" to-layer="45" to-port="5" />
		<edge from-layer="38" from-port="0" to-layer="42" to-port="1" />
		<edge from-layer="39" from-port="0" to-layer="42" to-port="2" />
		<edge from-layer="40" from-port="0" to-layer="42" to-port="3" />
		<edge from-layer="41" from-port="0" to-layer="42" to-port="4" />
		<edge from-layer="42" from-port="5" to-layer="44" to-port="0" />
		<edge from-layer="42" from-port="5" to-layer="43" to-port="1" />
		<edge from-layer="43" from-port="2" to-layer="44" to-port="1" />
		<edge from-layer="44" from-port="2" to-layer="45" to-port="6" />
		<edge from-layer="45" from-port="7" to-layer="46" to-port="0" />
		<edge from-layer="45" from-port="8" to-layer="46" to-port="1" />
		<edge from-layer="46" from-port="2" to-layer="47" to-port="0" />
	</edges>
	<rt_info>
		<Runtime_version value="2024.4.0-16579-c3152d32c9c-releases/2024/4" />
		<conversion_parameters>
			<framework value="pytorch" />
			<is_python_object value="True" />
		</conversion_parameters>
	</rt_info>
</net>
